weights/vgg_r11/block1_conv1_kernel_0.npy (npy, 7040 bytes, 1 tensors)

array f4 [3, 3, 3, 64]
0	0x3eaeb124	0.34119523
1	0x3dc3da3f	0.095631115
2	0x3c915dbe	0.017744895
3	0x3e9461a7	0.28980753
4	0xbdbc70eb	-0.09201225
5	0x3e5402d5	0.20704205
6	0x3d8463ed	0.06464372
7	0x3cb14eab	0.021643957
8	0x3ddd86f1	0.10816754
9	0x3d464363	0.04840411
10	0x3d5f82fb	0.054568272
11	0xbd7a1f13	-0.06106479
12	0xbe21d68d	-0.15804501
13	0x3d54b8af	0.05193394
14	0xbd8ce27b	-0.06879135
15	0x3e09370c	0.13399905
16	0xbc81cfe4	-0.0158462
17	0x3c8e76ce	0.017390635
18	0x3e2a01b8	0.16602218
19	0x3d6ccb72	0.057811208
20	0x3eb29ecd	0.3488678
21	0x3e59139c	0.21198887
22	0x3e17d51a	0.14827386
23	0xbe2d3f75	-0.16918738
24	0x3d0ea849	0.034828458
25	0x3e022e01	0.12712862
26	0xbd184e57	-0.037184086
27	0xbe4d3d04	-0.20042807
28	0xbd01ca56	-0.031687103
29	0xbe3e893a	-0.18607035
30	0xbe60c12c	-0.21948689
31	0x3e022a74	0.12711507
32	0xbdbbb89c	-0.09166071
33	0xbd0cad3f	-0.034344908
34	0xbe42eb4c	-0.19035071
35	0xbe8880c9	-0.26660755
36	0x3d007327	0.031359818
37	0xbea01478	-0.31265616
38	0x3e0fff51	0.14062239
39	0x3df823bf	0.12116193
40	0xbdcc592c	-0.09977946
41	0x3e9801ee	0.29688972
42	0xbd661db3	-0.056180667
43	0x3e529f35	0.20568545
44	0xbc2a460e	-0.010392679
45	0x3dbd5ef2	0.09246625
46	0xbddd1423	-0.107948564
47	0xbeacb057	-0.33728287
48	0x3d2f1bf3	0.042751264
49	0x3d84e24b	0.064884745
50	0xbc2047e9	-0.00978277
51	0x3ec18504	0.37796795
52	0x3d164c32	0.03669376
53	0xbe8a2505	-0.2698137
54	0x3e0312c3	0.12800126
55	0xbdd26018	-0.10272235
56	0x3c9e9636	0.019358736
57	0x3e9c7974	0.3056141
58	0xbe76ba52	-0.24094513
59	0xbe2774d5	-0.16353162
60	0xbe95d246	-0.29261988
61	0xbdea37f6	-0.11436455
62	0xbd50e3f8	-0.050998658
63	0xbb4478dc	-0.0029979264
64	0x3eeda97d	0.46418372
65	0x3d0972ba	0.033556677
66	0x3dd1d18b	0.10245045
67	0x3edee688	0.43535256
68	0xbddd34e9	-0.108011074
69	0xbe28b7fc	-0.16476434
70	0x3daab5f5	0.08335487
71	0x3d8d8c1e	0.06911491
72	0xbe4ac521	-0.19801761
73	0xbe17b8e4	-0.14816624
74	0x3dffddc7	0.124934725
75	0x3d5fe452	0.054661103
76	0x3e99f92e	0.30072922
77	0x3c96dc92	0.018415723
78	0xbdf81fbc	-0.12115428
79	0xbe3ddf51	-0.1854222
80	0xbd951e49	-0.07281167
81	0x3e3e2142	0.18567374
82	0xbe315a89	-0.17319693
83	0xbd7d08d9	-0.061776016
84	0x3e72ce37	0.23711477
85	0x3e916ba9	0.2840245
86	0x3d7f65c4	0.06235291
87	0xbee87750	-0.45403528
88	0x3de47d52	0.111567155
89	0x3da16318	0.07880229
90	0xbd887273	-0.066624545
91	0x3d115a76	0.03548666
92	0xbd81bd90	-0.06334984
93	0xbc8f5b38	-0.017499551
94	0xbe7af5b4	-0.24507791
95	0x3ddcb8c0	0.10777426
96	0xbde21eb6	-0.11041014
97	0xbe18f6ea	-0.1493794
98	0xbe5a8cc2	-0.21342757
99	0xbec02743	-0.37529954
100	0x3d1c48c6	0.03815534
101	0xbecf5cc4	-0.40500462
102	0x3e888e64	0.26671135
103	0xbde5d2d7	-0.11221855
104	0x3d684c49	0.056713376
105	0x3e375b84	0.17906004
106	0xbd938fd1	-0.07205165
107	0x3e899cd0	0.2687745
108	0x3d876daa	0.06612714
109	0x3db90355	0.09033839
110	0xbd9d4cb8	-0.076806486
111	0xbeec81cd	-0.4619278
112	0x3dff2c0a	0.12459572
113	0xbd0be319	-0.034152124
114	0x3dae0ce1	0.0849855
115	0x3eff38b4	0.4984795
116	0xbde75219	-0.11294956
117	0xbeb2c425	-0.3491527
118	0xbc02ed73	-0.007991183
119	0xbd797d19	-0.060910318
120	0xbdf4473f	-0.119276516
121	0x3e43ef85	0.19134338
122	0xbe9e14bd	-0.30875197
123	0x3e1a2682	0.15053752
124	0xbec1b0c1	-0.37830165
125	0xbd8e40d1	-0.069459565
126	0xbd24aadd	-0.04020201
127	0x3d25d509	0.04048637
128	0x3ec9d043	0.39416704
129	0xbdac6f83	-0.08419707
130	0xbd14bd16	-0.03631314
131	0x3ec9c130	0.39405203
132	0xbd4f982e	-0.05068224
133	0xbd1b5d95	-0.037931044
134	0x3d2bfd8d	0.04198985
135	0x3df2cd05	0.118555106
136	0x3ddecbce	0.108787164
137	0xbe087a99	-0.13328017
138	0x3ddca9d8	0.107745826
139	0xbd9ffd0e	-0.07811938
140	0xbe4e7840	-0.20163059
141	0xbdc04d75	-0.09389774
142	0xbd9bdfd7	-0.076110534
143	0x3e11184c	0.14169425
144	0x3e0f8085	0.1401387
145	0x3dc31d71	0.095271
146	0x3db88ea8	0.090115845
147	0x3e34a46b	0.17640845
148	0x3e6ce5bb	0.2313451
149	0x3e8d494d	0.27594987
150	0xbe14140a	-0.1446077
151	0xbe902d1d	-0.2815942
152	0xbc4d985d	-0.012548533
153	0xbe2d2f73	-0.16912632
154	0xbd54b1e2	-0.051927455
155	0xbcf44b01	-0.02982092
156	0xbd258417	-0.040409174
157	0x3e5da3e3	0.21644549
158	0xbe8d9c33	-0.27658233
159	0x3e01e819	0.12686194
160	0x3c6b0dd7	0.014346561
161	0x3c54e8f1	0.012994991
162	0xbe4bc9e1	-0.1990123
163	0xbeb00cd6	-0.34384793
164	0xbe1d255f	-0.15346287
165	0xbea7b083	-0.32751855
166	0x3e015169	0.12628712
167	0xbcf3f14a	-0.029778142
168	0xbdbc1465	-0.091835774
169	0x3e8aa48d	0.27078667
170	0xbd81ee99	-0.06344337
171	0x3e8089f9	0.25105265
172	0xbc3118d7	-0.010809145
173	0x3dba7739	0.09104771
174	0xbd156712	-0.03647525
175	0xbed6c8db	-0.41950116
176	0x3e379849	0.17929186
177	0xbdb188ff	-0.08668708
178	0xbe20b791	-0.15695025
179	0x3eea354b	0.45743784
180	0x3dc6787c	0.09690949
181	0xbe840130	-0.25782156
182	0x3d97d5e8	0.07413846
183	0xbe4484e4	-0.19191319
184	0xba2d0326	-0.00065998954
185	0x3e8cae18	0.27476573
186	0xbe88c1ad	-0.26710263
187	0x3d9fe840	0.0780797
188	0xbeb480e0	-0.35254574
189	0xbddb8e60	-0.10720515
190	0xbd1bcfff	-0.038040157
191	0x3d4020f3	0.046906423
192	0x3eae1370	0.33999205
193	0x3e08d7ba	0.13363543
194	0x3cae713b	0.021294227
195	0x3e5507df	0.20803784
196	0x3e256aa0	0.16153955
197	0x3e669240	0.22516727
198	0xbdae8855	-0.08522097
199	0x3dd8f412	0.10593428
200	0x3daf0fa9	0.08547909
201	0xbc9b9c15	-0.018995324
202	0x3ee56dfb	0.4481047
203	0x3df5fdec	0.120113224
204	0xbe10f91d	-0.14157529
205	0xb9bd6bba	-0.00036129152
206	0xbec00ac7	-0.37508222
207	0x3dfe9cc3	0.12432244
208	0xbd6ed338	-0.058306903
209	0x3d2dae37	0.042402472
210	0x3e03fd16	0.12889513
211	0x3b6cae7d	0.0036114745
212	0x3ea2a229	0.31764343
213	0x3e8b6f8b	0.27233538
214	0x3e1d9012	0.1538699
215	0xbde7270b	-0.11286744
216	0xbc8cebc0	-0.017202258
217	0x3e2492c4	0.16071612
218	0xbec0e1a1	-0.3767214
219	0xbe3e09c8	-0.18558419
220	0x3bcd58ed	0.0062667043
221	0xbe3db209	-0.18524946
222	0xbe1d7524	-0.15376717
223	0x3dd312bb	0.10306307
224	0xbdde57cb	-0.10856589
225	0xbd674af3	-0.05646796
226	0xbe6748f0	-0.22586417
227	0xbe083cd5	-0.13304456
228	0x3d0bde33	0.034147453
229	0xbe815cb2	-0.25266033
230	0x3e427117	0.18988453
231	0x3d934867	0.07191544
232	0xbdf9558d	-0.12174521
233	0x3ea687a0	0.3252535
234	0x3e091be8	0.13389552
235	0x3e7255dc	0.23665565
236	0xbd8d8c36	-0.06911509
237	0x3e6209e7	0.2207409
238	0xbe2c6905	-0.16836937
239	0xbeb331d3	-0.3499895
240	0xbde84254	-0.11340776
241	0x3e7edba9	0.24888481
242	0xbbceaa3a	-0.0063069137
243	0x3e4c604c	0.1995861
244	0x3c85f14f	0.016350416
245	0xbeb16e76	-0.34654588
246	0xbddc1a75	-0.10747234
247	0xbd1463cd	-0.03622799
248	0x3dccebeb	0.10005935
249	0x3dd77538	0.105204046
250	0xbc54abb9	-0.012980395
251	0xbe512bee	-0.20426914
252	0xbe3b408a	-0.18286338
253	0xbe0560da	-0.13025227
254	0xbe290d29	-0.16508926
255	0xbd8ebce7	-0.06969624
