weights/enc_r51/block3_conv1_bias_0.npy (npy, 1152 bytes, 1 tensors)

array f4 [256]
0	0x3d02e762	0.031958945
1	0xbb4a46a2	-0.0030864854
2	0x3cd70656	0.026248138
3	0x3d08d6cf	0.033407982
4	0xbe25f1c7	-0.16205512
5	0x3a81dfe0	0.0009908639
6	0x3ca16784	0.01970268
7	0x3db5a42a	0.088692024
8	0xbc88d7b1	-0.016704412
9	0x3c63fc48	0.013915129
10	0x3bcfb54c	0.006338751
11	0x3d69787a	0.05699966
12	0x3b2a70a2	0.0026007076
13	0xbdb5546c	-0.08853993
14	0xbca4a9c7	-0.020100487
15	0x3d56d3fe	0.052448265
16	0x3d3e1101	0.046402935
17	0xbd1ea47e	-0.03873109
18	0x3d307cc1	0.043087725
19	0x3d405a61	0.046961192
20	0xbc8ddf95	-0.017318526
21	0xbd5168e0	-0.051125407
22	0xbd6d4dea	-0.057935633
23	0x3d788ba1	0.060680036
24	0x3a32254b	0.0006795718
25	0xbd03b741	-0.032157186
26	0xbcb5e2ae	-0.022202816
27	0x3d64870d	0.055792857
28	0xbc8ac713	-0.01694063
29	0x3caa586e	0.02079412
30	0xbde6b767	-0.1126545
31	0x3d32fc40	0.043697596
32	0xbe1dc316	-0.1540645
33	0xbdb0e4f9	-0.08637423
34	0x3d22a63b	0.03970931
35	0xbb6317b2	-0.0034651575
36	0x3d8edeb8	0.06976074
37	0xbcd01054	-0.02539841
38	0xbd4d8cde	-0.05018317
39	0x3d6f2a50	0.05838996
40	0x3d6091cd	0.054826546
41	0xbd54b8b5	-0.051933963
42	0x3b9ba77c	0.0047501903
43	0xbd5e047c	-0.054203495
44	0x3c20ec72	0.009821998
45	0x3dd08bd1	0.10182918
46	0x3d3603a6	0.044437073
47	0x3cca82ef	0.024720637
48	0x3c6d91c7	0.014500088
49	0x3d2b8ea4	0.04188408
50	0x3c9b936f	0.0189912
51	0x3c8110ea	0.015755136
52	0x3e1936d5	0.14962323
53	0xbd9e3a23	-0.077259324
54	0x3d7b4e57	0.061354008
55	0x3e108ae3	0.14115481
56	0x3d08f77c	0.033439144
57	0x3c39087c	0.011293527
58	0xbd96d13b	-0.07364126
59	0xbd05e4c8	-0.032688886
60	0xbbcfff62	-0.0063475827
61	0x3d70ed30	0.05881995
62	0x3d0a48f6	0.033760987
63	0x3c0c791b	0.008573796
64	0xbca3888c	-0.019962572
65	0x3e367a1b	0.17820017
66	0x3d10f51c	0.035390005
67	0x3c38fa7f	0.011290192
68	0x3cccc90e	0.024998214
69	0xbd6345ff	-0.055486675
70	0xbdbcae0d	-0.09212885
71	0x3d902f9c	0.07040331
72	0xbc67c3a5	-0.014145766
73	0xbd149651	-0.036276165
74	0x3d84fb00	0.06493187
75	0x3d09305f	0.033493396
76	0x3ce610de	0.028084215
77	0x3d0933c9	0.03349665
78	0xbd49c044	-0.049255624
79	0x3dd56169	0.1041897
80	0x3cecb05e	0.028892692
81	0x3d098464	0.033573523
82	0xbc18b068	-0.009319402
83	0xbd5b84c7	-0.053593423
84	0xbc19e5a1	-0.009393127
85	0x3d9f9468	0.07791978
86	0xbd6f69eb	-0.05845062
87	0xbd6786e6	-0.056525134
88	0x3932f7ce	0.00017067717
89	0xbc8070cb	-0.015678784
90	0x3c5d9700	0.013524771
91	0x3d4cf25c	0.05003582
92	0xbcd64b49	-0.026158946
93	0x3d4fb7b0	0.050712287
94	0x3cf537b7	0.029933793
95	0x3da79ca5	0.081841744
96	0x3c385d55	0.011252721
97	0xbc6b71a5	-0.014370357
98	0x3cf31f0b	0.029677888
99	0x3cffe37c	0.031236403
100	0xbd08657c	-0.033299908
101	0x3cec2f8e	0.02883127
102	0x3e106d07	0.1410409
103	0x3d99325c	0.074803084
104	0x3c2fb1d5	0.010723551
105	0x3c2b83c6	0.010468429
106	0x3b72320d	0.0036956102
107	0x3c6ee56f	0.014581068
108	0x3c7beb1f	0.015375881
109	0x3dcd8e24	0.10036877
110	0xbd4aa2ab	-0.04947154
111	0x3d815cd5	0.063165344
112	0x3b348f7d	0.0027551346
113	0x3cd57c8e	0.026060369
114	0x3e2e0649	0.16994585
115	0x3e6afcb2	0.22947958
116	0x3dada5af	0.08478867
117	0xbdce2352	-0.100653306
118	0x3de1b506	0.110208556
119	0x3e12f56a	0.1435143
120	0x3b9253dc	0.004465563
121	0xbd050780	-0.032477856
122	0xbdac7964	-0.08421591
123	0x3d693739	0.05693743
124	0xbd1f94ba	-0.038960196
125	0xbd586af0	-0.05283636
126	0x3bca047d	0.006165086
127	0x3cb0c94d	0.021580363
128	0x3d3bc64d	0.04584341
129	0x3d7d756f	0.06187957
130	0xbd89f3b3	-0.06735935
131	0xbd2efb83	-0.04272033
132	0xbc1eb60e	-0.00968696
133	0x3d47e16e	0.04879897
134	0x3b40d7cd	0.0029425502
135	0xbd5fcbb7	-0.054637637
136	0x3d6d86db	0.057989936
137	0x3e188303	0.14893727
138	0x3bc2ab00	0.005940795
139	0xbcc57d44	-0.024107583
140	0x3e282026	0.16418514
141	0xbd6c5072	-0.057693906
142	0xbd09bb5c	-0.033625945
143	0x3c2bc17b	0.010483141
144	0x3da57f44	0.080809146
145	0x3dcee98e	0.10103141
146	0x3d0be4af	0.034153637
147	0xbe03fcd1	-0.1288941
148	0xbcb3c09c	-0.02194243
149	0xbd16e6e0	-0.036841273
150	0xbd0373a1	-0.032092694
151	0x3d63f473	0.055653047
152	0x3e11ddb6	0.14244732
153	0xbce31324	-0.027719088
154	0xbb44caf7	-0.0030028203
155	0x3b3a692a	0.002844403
156	0x3d7da9d5	0.061929543
157	0x3d20bfbc	0.039245352
158	0x3d33088b	0.04370932
159	0xbba72adb	-0.0051015443
160	0xbb9fe806	-0.0048799543
161	0xbcd6a062	-0.026199523
162	0x3d11fc67	0.0356411
163	0x3c2ea567	0.010659552
164	0x3a467014	0.00075698015
165	0x3d0944e2	0.033512957
166	0x3b402d6c	0.0029323949
167	0xbc8768da	-0.01652949
168	0xbd3b977b	-0.04579876
169	0x3cdbed03	0.026846414
170	0xbc2a1f6f	-0.010383471
171	0xbd4ff3fd	-0.050769795
172	0xbd1e3770	-0.038627088
173	0x3d978a06	0.07399373
174	0x3e4b1272	0.19831255
175	0x3d877776	0.06614582
176	0x369633ef	4.476394e-06
177	0xbcba7613	-0.02276138
178	0x3da591b1	0.08084429
179	0x3cfef0b2	0.031120632
180	0x3daee804	0.08540347
181	0xbc92f1ed	-0.017937625
182	0xbc1f9492	-0.009740012
183	0x3ce796f9	0.028270232
184	0x3cf789bf	0.03021705
185	0x3d477ad5	0.048701126
186	0xbd7ae1e2	-0.061250575
187	0x3d1e05cc	0.038579747
188	0x3d610ef2	0.054945894
189	0x3e366fae	0.1781604
190	0xbd88f77e	-0.066878304
191	0x3dd62f96	0.10458295
192	0x3d94702c	0.072479576
193	0x3c342c34	0.010996867
194	0x3d3e4ed8	0.04646191
195	0xbdaedaec	-0.0853785
196	0x3d72c644	0.059271112
197	0xbc4fc867	-0.012682057
198	0x3b8840b6	0.004158105
199	0x3dddac7d	0.10823915
200	0xbd85bea1	-0.065305
201	0xbdb95084	-0.0904856
202	0x3c811899	0.0157588
203	0x3daa5a45	0.08317999
204	0x3dc5d9e0	0.09660697
205	0x3dedd52d	0.11612926
206	0xbd983c3f	-0.07433366
207	0x3c334c91	0.010943548
208	0x3b11f167	0.002226913
209	0x3d38094d	0.044930745
210	0x3cb113c8	0.021615878
211	0x3e3be418	0.1834873
212	0x3d2ae48c	0.041721866
213	0xbbb38288	-0.005478207
214	0x3df80ddc	0.121120185
215	0xbc065dfa	-0.008201117
216	0xbc11c8d5	-0.00889798
217	0x3ccb2668	0.024798587
218	0xbb831ed2	-0.004001477
219	0x3c2e4e14	0.010638732
220	0xbe3186c7	-0.1733657
221	0x3ce2bfac	0.027679287
222	0xbdca32a2	-0.09872939
223	0x3ce49fd1	0.027908238
224	0x3cc080f6	0.023498993
225	0xbcc9581f	-0.024578152
226	0x3c8c39ca	0.0171174
227	0xbc8483db	-0.016176155
228	0xbd102ddc	-0.035199985
229	0x3d141db4	0.03616114
230	0xbd0311ee	-0.03199952
231	0xbc6a4e16	-0.014300844
232	0x3dc81b94	0.09770885
233	0x3cc9e347	0.024644507
234	0xbc92c61a	-0.017916728
235	0x3cfda123	0.030960625
236	0xbd65f476	-0.05614134
237	0x3d52ed46	0.051495813
238	0x3dd5391c	0.104112834
239	0xbceb1d21	-0.028700413
240	0x3dddb3ca	0.10825308
241	0xbc0e9c2c	-0.008704226
242	0xbd4df8b5	-0.050286014
243	0x3d7bdb18	0.06148824
244	0xbd2d0e12	-0.042249747
245	0xbc20c338	-0.009812169
246	0x3d53303f	0.051559683
247	0xbba133e0	-0.004919514
248	0x3ddffb28	0.10936576
249	0x3d1ca0f5	0.038239438
250	0x3e1154ed	0.14192553
251	0xbe0e50d9	-0.13898028
252	0x3c987557	0.01861064
253	0x3cabfbe2	0.02099413
254	0xbe1316a5	-0.14364107
255	0x3e317acb	0.17331998
