weights/enc_r51/block4_conv1_bias_0.npy (npy, 2176 bytes, 1 tensors)

array f4 [512]
0	0x3cbfeb64	0.023427673
1	0x3c95801e	0.018249568
2	0x3ce1fd01	0.027586462
3	0xbc711579	-0.014714592
4	0x3d58a89c	0.052895173
5	0xbb844399	-0.0040363786
6	0x3c955780	0.0182302
7	0x3c23e14d	0.010002446
8	0xbbe4e395	-0.0069851377
9	0xbc97156f	-0.018442838
10	0x3bf9bc41	0.0076213186
11	0x3d26ca2c	0.04072015
12	0x3d0371ee	0.032091074
13	0x3c02aebe	0.007976232
14	0x3c2b52b8	0.010456733
15	0x39116e5d	0.00013869391
16	0x3d2ca7bd	0.042152155
17	0x3d02322f	0.03178614
18	0xbcb1592f	-0.021648971
19	0x3c3c3dc2	0.011489334
20	0x3cf7bb8d	0.030240798
21	0xbb96dd4a	-0.0046040164
22	0xbcaccd78	-0.021094069
23	0x3bc9bb01	0.006156326
24	0x3b1809c0	0.002319917
25	0xbaeea58e	-0.0018207298
26	0x3d02df81	0.03195143
27	0x3c950a92	0.018193517
28	0xbb1fe7bc	-0.00243996
29	0x3d282656	0.041052185
30	0x3c999166	0.01874609
31	0x3bcd60a7	0.0062676254
32	0x3bafb234	0.0053618196
33	0x3b886a9b	0.004163099
34	0x3cd9fcaf	0.026609747
35	0x3c9416b9	0.018077241
36	0x3aaac2b4	0.0013027997
37	0xbcdaaa77	-0.026692612
38	0x3c830baa	0.015996773
39	0xbb648e7b	-0.0034874964
40	0xbb157d0a	-0.0022810125
41	0x39f352cf	0.0004641027
42	0x3c04b82d	0.008100552
43	0x3c6ec7ed	0.014574033
44	0xbc78287a	-0.015146369
45	0xba9f2f6c	-0.001214487
46	0xbbbd0acf	-0.0057691108
47	0x3c676d2c	0.01412515
48	0xbb2176ca	-0.0024637454
49	0xbc00bac1	-0.007857026
50	0x3b00c94c	0.0019651232
51	0x3c98a95e	0.018635448
52	0x3ccd842c	0.025087439
53	0xbd108a76	-0.035288297
54	0x3bbed901	0.0058242087
55	0xbc6c5541	-0.014424623
56	0x3d93a230	0.07208669
57	0x3c9fb34f	0.01949468
58	0x3bf9bb9d	0.007621242
59	0xbd05971c	-0.032614812
60	0xbc7872d4	-0.015164096
61	0x3d2f27b9	0.04276249
62	0x3d90d0da	0.07071085
63	0x3cc1a5f9	0.023638712
64	0x3d1853d2	0.037189312
65	0x3cecde44	0.028914578
66	0x3ca9b50e	0.020716216
67	0xbc0dcfba	-0.008655483
68	0x3d730dbd	0.059339274
69	0xbcdd4259	-0.027009176
70	0x3c31d486	0.010853892
71	0x3cb4c0c1	0.022064568
72	0x3cf21321	0.029550137
73	0x3cb2e491	0.021837505
74	0x3d120494	0.035648897
75	0x3cd43740	0.025905252
76	0x3a601975	0.0008548715
77	0x3ca27a2d	0.019833649
78	0x3b2d7a76	0.0026470697
79	0x3cb0c75d	0.021579439
80	0x3a18b466	0.00058252213
81	0x3b1305a4	0.0022433782
82	0x3ca88ecc	0.020575903
83	0x3d19f2c2	0.037585028
84	0x3d30f0ae	0.04319828
85	0xbbeaca5a	-0.0071652355
86	0xbbea90e5	-0.007158386
87	0x3d09df3b	0.033660155
88	0xbba9d7a8	-0.005183179
89	0x3c8b72ec	0.017022572
90	0x3c38998c	0.011267077
91	0x3cfc4035	0.030792335
92	0xbb2efb33	-0.002670002
93	0x3d02156b	0.031758707
94	0x3bb239c2	0.005439014
95	0x3b9fcaaf	0.0048764567
96	0xbc285454	-0.010274012
97	0x3ae3c6ca	0.0017377969
98	0x3d869054	0.06570497
99	0x3cbb7645	0.022883544
100	0x3c65f311	0.014035002
101	0x3b8b6f20	0.0042551905
102	0x3cc50197	0.02404861
103	0xbb01309e	-0.0019712816
104	0x3ca5f352	0.020257626
105	0xbc782ac9	-0.0151469195
106	0x3bc6b4f5	0.006064052
107	0xb977475f	-0.00023582343
108	0x3aebb48b	0.0017982883
109	0x3d035a9a	0.032068826
110	0x3cf34dce	0.029700186
111	0x3c8e3faa	0.017364342
112	0x3c6e331e	0.0145385545
113	0x3d348f8d	0.044082213
114	0xbc63084e	-0.01385696
115	0xbade7be3	-0.0016974177
116	0x3c524141	0.012832941
117	0xbb88f7f0	-0.004179947
118	0x3b66e145	0.0035229486
119	0x3c603850	0.013685301
120	0x3c8377da	0.01604836
121	0xbc08326e	-0.008312805
122	0x3d2fc98b	0.042916816
123	0x3c0874f3	0.008328664
124	0xbab844c3	-0.0014058579
125	0x3c3c1cd6	0.011481484
126	0x3c8abf36	0.01693688
127	0xbb6b06bf	-0.0035862175
128	0x3da4ad6b	0.08040889
129	0xba6248eb	-0.00086320814
130	0xbc4bf989	-0.012449631
131	0x3c99fab7	0.018796308
132	0x3c5ac59b	0.013352777
133	0x3af7b33f	0.0018898024
134	0x3d21f858	0.03954348
135	0xbb06f59b	-0.002059317
136	0x3c411c94	0.011786599
137	0x3bc5304a	0.0060177194
138	0x3c073f9c	0.008254912
139	0x3d16484d	0.036690045
140	0x3c4dfe99	0.012572908
141	0x3d04519b	0.032304388
142	0x3c271335	0.01019745
143	0x3d3ee90f	0.04660898
144	0x3b7c3f7b	0.0038489986
145	0xbb16597e	-0.0022941525
146	0x3aa7e102	0.0012808146
147	0xbc88167b	-0.016612282
148	0x3d0691ec	0.032854006
149	0x3c869bac	0.016431652
150	0x3c65c83a	0.0140247885
151	0x3cb8768d	0.022517467
152	0xbc506aa0	-0.012720734
153	0x3bd6077a	0.006531653
154	0x3a854fe7	0.0010170907
155	0x3b85c4a9	0.0040822816
156	0x3c02893f	0.007967292
157	0x3d8c25ba	0.06843133
158	0x3bc4b7e1	0.0060033654
159	0x3b8598e1	0.0040770625
160	0x3ccf745d	0.025324041
161	0x3c879f74	0.016555525
162	0xbb7fb972	-0.0039020446
163	0xbc18d66c	-0.009328466
164	0x3d588ef7	0.052870717
165	0x3d0081b5	0.0313737
166	0xbc3b97a8	-0.011449732
167	0xbba95c10	-0.0051684454
168	0xbc219d92	-0.009864228
169	0x3bfbb6e1	0.007681713
170	0x3ce4f64a	0.027949471
171	0x3d235aa2	0.039881356
172	0x3c66f9a7	0.014097608
173	0xbb9e2f2f	-0.004827402
174	0x3d20bb51	0.03924114
175	0x3c535db0	0.012900755
176	0x3c5b8225	0.013397728
177	0x3d53fded	0.051755834
178	0xbc936109	-0.017990606
179	0x3b6505fb	0.0034946192
180	0x3c69e32a	0.014275352
181	0xbbce250c	-0.0062910374
182	0x3c2c570b	0.0105188
183	0x3d0617bc	0.03273748
184	0x3d296b24	0.041361943
185	0x3d168331	0.036746208
186	0xba8c3f43	-0.0010700006
187	0xbbab0b15	-0.005219827
188	0xbbb1477c	-0.005410133
189	0x3bb0a79b	0.005391074
190	0xbb242271	-0.0025044943
191	0x3d63109b	0.055435758
192	0x3d008c1e	0.031383626
193	0xbc3679c5	-0.011137431
194	0x3c9e1fd7	0.019302292
195	0x3c1a4024	0.009414706
196	0x3c506599	0.012719535
197	0x3bf483bf	0.0074619944
198	0x3b49cee0	0.0030793473
199	0x3c4e6e33	0.012599516
200	0x3cc5332f	0.024072258
201	0x3c5f153c	0.0136159025
202	0x3cd330b7	0.025780065
203	0x3bcbbca4	0.006217556
204	0x3b132f14	0.002245848
205	0x3cbe7e1a	0.02325349
206	0xbc8b0252	-0.01696888
207	0xbabb6586	-0.0014297224
208	0xbb5a093c	-0.0033269664
209	0x3d1ebacb	0.03875236
210	0xb8fa33fd	-0.000119306125
211	0xbbc80893	-0.0061045378
212	0x3b5f3491	0.0034058432
213	0x3c14bb33	0.009077835
214	0x3d87732f	0.066137664
215	0x3b974e43	0.004617484
216	0x3d0f0a26	0.034921788
217	0x3a2766c9	0.00063858606
218	0x3cb53ade	0.022122797
219	0xb9c49ffe	-0.00037503237
220	0x3c2fc156	0.010727247
221	0x3c548983	0.0129722385
222	0x3a83fe67	0.0010070325
223	0x3c9785b0	0.018496364
224	0x3d91ee25	0.071255006
225	0x3c699818	0.014257453
226	0xbb6c9838	-0.0036101472
227	0x3d1c01ea	0.038087763
228	0x3a34fc80	0.00069040805
229	0x3c1029b0	0.008799002
230	0x3c878334	0.016542055
231	0x3c4640c8	0.012100406
232	0x3d4d87c7	0.050178315
233	0x3cb52dd6	0.022116583
234	0x3a8dbdd8	0.0010814024
235	0x3b66b997	0.0035205835
236	0x3d533ecb	0.051573556
237	0x3d10b33e	0.03532719
238	0x3c6b232f	0.01435165
239	0x3ca2b4f2	0.019861672
240	0x3cac8d94	0.021063603
241	0x3bbf5ebc	0.0058401506
242	0xbaf58ce1	-0.0018734002
243	0x3d2af058	0.041733116
244	0xba13498f	-0.0005618566
245	0xbc0b5726	-0.0085046645
246	0x3c83bb21	0.016080441
247	0x3c76c33a	0.015061194
248	0x3d2ab7e5	0.04167928
249	0xbbcdde56	-0.006282608
250	0xbca45307	-0.020059122
251	0xbc104c41	-0.008807243
252	0x3ac806b5	0.0015260788
253	0x3c8726ed	0.016498053
254	0xbc6f6bdb	-0.014613117
255	0x3c9ceaa8	0.019154862
