weights/enc_r51/block5_conv1_bias_0.npy (npy, 2176 bytes, 1 tensors)

array f4 [512]
000000 f3 29 67 bd c9 27 d6 bd 54 ee 7c 3c 24 4f 88 3d
       -0.05643649 -0.10456807 0.015437681 0.0665572
000010 12 19 af bd 79 10 53 3e b4 69 03 be ea 64 f6 bc
       -0.08549704 0.20611753 -0.12833291 -0.030077416
000020 ab 40 dd 3c 3e 97 cb 3d 70 d9 c6 3d 65 c3 2e 3d
       0.027008375 0.099409565 0.09709442 0.04266681
000030 7f 85 68 bd d9 ab bb 3d e4 54 08 3e fb be 33 bd
       -0.056767937 0.09163637 0.13313633 -0.043883305
000040 89 58 50 3d 3a a3 9d 3d 5d 47 b4 3b e0 03 4c 3d
       0.050865684 0.076971486 0.005501671 0.049808383
000050 78 f1 6a bc f0 d4 79 bd 9d 63 6d bc 91 ee 15 bd
       -0.014339797 -0.06099409 -0.014489082 -0.036604468
000060 cb 9d a1 bd 29 0c 84 3d 31 6d 33 bc 72 7b 1b 3d
       -0.07891425 0.06447632 -0.010951326 0.037959523
000070 ed ed c8 3d f8 ed 1b 3c 98 37 54 3e f0 e3 b8 3d
       0.09811006 0.009517185 0.20724332 0.09027851
000080 1f c9 92 bd fb fc 41 3e 04 05 6c 3c cc 55 5f bc
       -0.07167267 0.1894416 0.014405493 -0.013631295
000090 5c 3e 8d 3e fb 43 af bd c2 cb 84 3a 67 83 f1 3d
       0.2758664 -0.08557888 0.0010131525 0.11792641
0000a0 ff 0e 1e 3d 4f 0c 38 bd 7f e4 4a bc dd dd 30 3d
       0.03858852 -0.044933613 -0.012383579 0.043180335
0000b0 00 d9 c2 bc 80 bd 82 3e 58 7a 78 bd 7b 42 0a bd
       -0.023785114 0.25535202 -0.06066355 -0.033754807
0000c0 c8 0a 8b 3b e3 0f 8c 3d 47 d6 90 bd fc 4b d9 3b
       0.0042432286 0.06838968 -0.0707212 0.0066313725
0000d0 c5 55 93 3d 45 24 20 3d d0 eb 09 3d f7 bd 85 3d
       0.071940936 0.03909709 0.033672154 0.065303735
0000e0 9e 37 f0 bb 63 f0 43 bd bf 91 84 3d 81 b3 01 3c
       -0.007330849 -0.047836673 0.06473111 0.007916332
0000f0 f7 f1 5e 3d 2d bc e2 bd a6 c3 03 bd 25 45 1a 3d
       0.054429974 -0.11071048 -0.032169007 0.037663598
000100 6d d2 4b bd 3f e1 19 3d 75 28 e5 3a 2c ca b8 3d
       -0.049761225 0.037568327 0.0017483371 0.09022936
000110 1d 5c 65 bd 0b 28 88 3d d0 58 2e 3e 70 22 d5 bd
       -0.05599605 0.066482626 0.17026067 -0.10406959
000120 98 79 3b 3e 9a 4d 92 bd 11 0d b0 3d b3 0a 82 3d
       0.18308103 -0.071437076 0.08596242 0.06349697
000130 37 9b db bd 44 82 8b 3d e6 9b 9d 3d 47 6e a0 bc
       -0.10722964 0.068119556 0.07695751 -0.019583834
000140 28 19 c3 bd be 20 e3 3d 6c a0 39 3d 81 03 d0 3d
       -0.095262825 0.110902295 0.045319006 0.10156918
000150 0d 6d 5a bd 8f ed 41 bd 36 9c 6d 3e 68 80 f4 3d
       -0.053326655 -0.047345694 0.23204121 0.11938554
000160 95 ba 88 39 9c a0 97 3d 47 36 2a 3e 74 cd 31 3e
       0.00026078956 0.07403681 0.16622268 0.1736353
000170 cf 4f 25 bd 16 d7 ad 3c 85 a0 67 3d 80 b9 cb bd
       -0.040359315 0.021220725 0.056549568 -0.09947491
000180 2e 9a b1 bd 74 27 13 3e e4 53 48 3c 4e 4e 06 bd
       -0.086719856 0.14370519 0.012227032 -0.03278952
000190 72 46 60 3b 42 82 9f 3e 8e 02 ee 3c 68 46 a8 bd
       0.0034221676 0.31154066 0.029053953 -0.08216554
0001a0 dd 94 09 3e 4d a2 8a bc 8e 79 47 3e 73 99 78 3c
       0.13435693 -0.016923094 0.19479963 0.015173304
0001b0 7d b0 9e bd 79 37 a4 3d f1 c4 0f 3e c1 ba a1 3d
       -0.07748506 0.08018393 0.14039971 0.078969486
0001c0 b6 92 90 3d 99 ff 16 3e d8 14 5b 3e 9a f6 82 3a
       0.07059233 0.1474594 0.2139467 0.0009991706
0001d0 54 08 66 bd bf 31 66 3b 4c 2a 37 3e bb 5f e7 bc
       -0.056160286 0.0035124866 0.17887229 -0.02824389
0001e0 71 ea 9c bd 3e 1c f2 bc ca 0b f9 3d f0 68 bb 3d
       -0.07661904 -0.029554483 0.12160452 0.091508746
0001f0 cc ab 5a 3d 6a 2e d8 3c 75 63 2e bd d8 a2 79 bc
       0.053386495 0.02638932 -0.04257532 -0.015236579
000200 99 d6 82 bd 7c 89 c1 bd 18 2c 90 3a 20 28 18 3d
       -0.063885875 -0.09450051 0.0010999469 0.03714764
000210 8e 8a 40 3e 1b b2 ae bc 56 76 33 bc c7 a3 3e bc
       0.18802854 -0.021325162 -0.010953506 -0.011635727
000220 4f b2 35 3d 90 67 23 3d 94 00 9e 3b 2d e2 2c bd
       0.0443595 0.039893687 0.0048218463 -0.042207886
000230 4b 6b e7 bc 5f 8f ae bc 56 cf 27 3e 3a 99 45 3c
       -0.028249403 -0.021308599 0.16387686 0.012060458
000240 86 eb ea 3d 12 02 8c bc 4b 34 92 bd 6b 76 b8 bc
       0.11470704 -0.017090831 -0.0713888 -0.022517404
000250 46 49 15 bd b5 25 83 3d 5b f3 a0 3b 97 84 69 bd
       -0.036446832 0.064036764 0.0049118227 -0.057011213
000260 4f f8 c0 bb bd 02 34 3d a3 f7 49 3e 41 16 77 3d
       -0.0058889757 0.043947924 0.19723372 0.060323957
000270 34 03 97 bc a8 50 14 bc 64 9b 01 3d d2 1d f6 3b
       -0.018434145 -0.009052433 0.031642333 0.007510879
000280 b5 64 c4 3d d1 21 be 3d 96 92 34 3d 3c aa 2d 3e
       0.09589521 0.09283794 0.044085108 0.1695947
000290 06 ac f0 3c c8 ed 95 3d 79 21 22 3c 06 6c 34 bd
       0.029378902 0.07320744 0.009895676 -0.04404833
0002a0 84 6d eb bb 89 69 d0 3b bd 05 b0 3c f3 41 08 3d
       -0.007184686 0.006360237 0.021487111 0.03326602
0002b0 72 24 02 bc 7c 63 ec 3d 26 6e c8 bd 7f 09 c8 bc
       -0.00794326 0.11542413 -0.09786634 -0.02441859
0002c0 3d 05 be 3d 09 6f e9 3c ad 77 44 bd 14 6e 91 3c
       0.09278343 0.028495329 -0.047965694 0.017752685
0002d0 dd f5 b0 3d 30 ae e6 bc 91 ef 81 bb 8d c9 43 3e
       0.08640645 -0.028159231 -0.003965326 0.19119854
0002e0 9e 0e 1d 3c b8 5c 0a 3d 91 4b 81 3d 8a 33 f3 bb
       0.009586005 0.03377983 0.06313241 -0.0074219154
0002f0 9c ef 87 bd 4f 4c 1d 3e b8 c5 25 3d d6 00 06 3d
       -0.06637499 0.1536114 0.040471762 0.03271564
000300 11 fb bd 3d f3 ac 29 3e be 01 54 3d 24 7d 59 3d
       0.09276403 0.16569881 0.051759474 0.05309786
000310 fe 18 2d 3e 27 0c 7a bc da 78 83 3d 41 f3 0b 3e
       0.16904065 -0.015261686 0.06419535 0.13667013
000320 ff ef ae 3d 07 75 cc 3d 63 5b c8 3d 30 45 76 3e
       0.08541869 0.09983259 0.09783056 0.2404983
000330 b1 d3 4a 3d 89 1d e3 3d f9 cd d1 3d f2 cc 17 bd
       0.04951829 0.11089618 0.10244364 -0.037060685
000340 36 55 3c 3c e0 f9 ae 3d 3a 14 40 bd 71 bf ed bd
       0.011494925 0.085437536 -0.04689429 -0.1160878
000350 63 21 60 3d 28 2d 3f 3d be 5c 83 39 67 e3 cb 3c
       0.05471934 0.046673924 0.00025055365 0.024888707
000360 88 35 30 3e 51 80 a8 bc dc ab 8a bd c0 94 61 3d
       0.1720792 -0.020568999 -0.06771061 0.0550735
000370 ce d7 81 3d 86 fe 85 3c 4d e9 1b 3d e0 52 3c 3b
       0.063399896 0.016356718 0.03806429 0.002873592
000380 48 17 08 bd a4 bc e9 3d 07 69 97 3c 26 8d 85 bd
       -0.033225328 0.114129335 0.018482698 -0.065210626
000390 13 9a 18 3e 53 67 26 bc a9 85 1b 3e 02 fd ba 3b
       0.14902525 -0.01015647 0.15187706 0.0057064304
0003a0 6c b1 93 bb 77 70 f9 3d 14 7a 9e bc 9d 73 37 3d
       -0.0045072343 0.12179654 -0.01934532 0.04478799
0003b0 53 14 59 3d 28 8c bd bc 88 45 d7 3d 7e bd 63 3c
       0.0529979 -0.02313812 0.10511309 0.013900159
0003c0 25 34 25 3d 3c e4 96 bc cf d1 18 3d 7e 9b 8d 3d
       0.040332932 -0.018419378 0.037309464 0.069144234
0003d0 cc 2e a4 3c d8 03 51 bc 3c 18 0c bc ed 65 12 3e
       0.020041846 -0.012757264 -0.0085507 0.14296694
0003e0 e6 01 1c 3c 40 3e 31 bd 13 60 93 3d ba 9c 94 bd
       0.009521937 -0.043272257 0.07196059 -0.07256456
0003f0 45 0c 6d bc 9d ea d5 bd 36 d8 2b 3e 24 96 89 bd
       -0.014468257 -0.104451396 0.16781697 -0.0671809
