weights/vgg_r21/block2_conv1_bias_0.npy (npy, 640 bytes, 1 tensors)

array f4 [128]
00000000: 69b0 2ebd 9ddc a13d 0d94 d4bc 55ea cb3d
00000010: 3e65 e83d 2052 643e 0d72 263e cf55 773e
00000020: f725 5e3e c6bd 103e 4a82 913c ea25 173e
00000030: c91e 273c 41f9 583b 443b 823e 5c11 743e
00000040: 561b 7e3e 3be9 863e 8f26 883e 5bbd 7c3e
00000050: 2eea 5a3e 3678 353e b8a2 03bc 3575 373d
00000060: daec af3e 8e82 5c3e df68 ff3d cad6 543c
00000070: 8dd6 803c 9e03 833d 7432 933e 53ba 93bd
00000080: dddf f93d 3dda 423e 764d 91bd 9906 b8bd
00000090: 30f1 0a3e 53d4 543e 3dd4 993c 1bdc 48bc
000000a0: cb03 5bbc 767f 933e c311 d83d 42a4 dc3b
000000b0: 3d48 893e b99e 823e c1d3 873e 4a20 013e
000000c0: 5670 943e a95b 3abd 2419 febc 1ac7 4a3d
000000d0: 1ff4 eb3d 715f acbd 18b2 033e d8f5 6b3e
000000e0: a622 833d 98db e43d b1ae e83d 6aa0 153c
000000f0: c600 c7bd c329 6b3e a6cb ad3d 34e1 8a3d
00000100: 3e5d 373e 0994 a23d d1f2 7e3e f352 7cbd
00000110: fdf7 483d 16f7 63bd c571 273e ed88 ae3d
00000120: 4bc9 e93d 21b3 4f3e b592 2ebd a078 2ebe
00000130: 857c 473e e695 773d a785 253e bda2 673e
00000140: 3daa fd3d a43f 143e 281a 353e 27f2 b33e
00000150: 8240 3cbd 57ee 4e3e 6d0c 283e b7e0 da3d
00000160: 401b 693e 74ce c9bc 379f 1c3e 2168 0ebe
00000170: bea4 2b3d 0297 103e f9c1 363e 3da0 4f3d
00000180: 812b 233e a07b 173e e5a6 163d d7e7 543e
00000190: cc76 bd3c 3a01 5d3d a7e8 af3d ba7e a13e
000001a0: 8935 5abc 3af9 1f3c e191 433c 3d86 503e
000001b0: c78d afbc 905b 883e 0187 043e 02cf 903e
000001c0: 9f38 2bba c182 65bc 4ca8 a93d 19cc dc3c
000001d0: 7b50 893e f2f9 10bd bbb9 0d3d f02e 6b3e
000001e0: 207a b8bd b726 1fbc 8b9f 873e 2d1d babd
000001f0: 8ad0 a13d 5d25 9d3e ea1d 873d 967c d43d
-0.042648707 0.07903407 -0.025949502 0.09956805 0.113474354 0.22296953 0.16254444 0.24153827
0.2169417 0.14134893 0.017762322 0.14760557 0.010200211 0.0033107551 0.2543584 0.23834747
0.24815115 0.26349816 0.26591918 0.24681608 0.21378395 0.17721638 -0.008034401 0.04478951
0.3436039 0.21534178 0.124711744 0.012990663 0.015727306 0.06397174 0.2874943 -0.07213273
0.12200902 0.19028564 -0.070948526 -0.089856334 0.13568568 0.2078412 0.01877796 -0.0122595085
-0.0133676035 0.28808182 0.10550263 0.0067334482 0.26812926 0.2551172 0.26528743 0.12609974
0.28991956 -0.04549757 -0.031017847 0.049506284 0.11521172 -0.084166415 0.12860906 0.23043
0.06403093 0.11174697 0.11361445 0.009132484 -0.097169444 0.2296515 0.084861085 0.06781235
0.17906663 0.07938392 0.24897315 -0.061602544 0.049064625 -0.05565556 0.16351993 0.0852221
0.11415347 0.20283176 -0.04262038 -0.17038202 0.19481094 0.06044569 0.16164266 0.22620673
0.12385986 0.14477402 0.17685759 0.35145685 -0.045959957 0.20208107 0.1641099 0.10687392
0.22764301 -0.024634577 0.1529511 -0.1390691 0.041905157 0.14120105 0.17847432 0.050689925
0.15934564 0.14793253 0.036780257 0.20791565 0.023127936 0.053956248 0.08589297 0.31541997
-0.013318428 0.00976401 0.011936636 0.20363708 -0.02142991 0.26632357 0.12942125 0.28282934
-0.00065315695 -0.014008225 0.08284053 0.02695279 0.26819214 -0.035394616 0.034600955 0.22967124
-0.090076685 -0.00971382 0.2648891 -0.09087596 0.07901104 0.30692568 0.065975025 0.103753254
