weights/vgg_r21/block2_conv1_kernel_0.npy (npy, 295040 bytes, 1 tensors)

array f4 [3, 3, 64, 128]
0	0xbb1d5dd7	-0.0024012232
1	0x3d0d90d1	0.034561936
2	0x3c5252e4	0.0128371455
3	0xbcd67a8b	-0.02618148
4	0x3d2eeabe	0.042704336
5	0xbc4a660d	-0.012353432
6	0xbc873d9a	-0.016508866
7	0x3d1704ad	0.036869694
8	0xbd403f38	-0.04693529
9	0xbd2ed555	-0.042683918
10	0x3bf71c69	0.0075412286
11	0x3d55952c	0.052144215
12	0xbca51a43	-0.020154124
13	0x3b42cae7	0.002972299
14	0x3c52d179	0.012867325
15	0x3ca13b4f	0.0196816
16	0x3c73d9f3	0.014883506
17	0x3d583416	0.052784048
18	0x3ce63272	0.028100226
19	0xbd5c8a27	-0.05384269
20	0x3d09cb21	0.033640984
21	0x3d2651bf	0.040605303
22	0xbc1be4ae	-0.009514971
23	0xbcd75223	-0.026284283
24	0x3d8eb4ed	0.069681026
25	0x3d0fa465	0.03506889
26	0x3a17f118	0.00057961186
27	0x3c51e962	0.01281199
28	0xbca5f850	-0.020260006
29	0x3caf4421	0.021394791
30	0xbd038933	-0.032113265
31	0x3c2eda40	0.010672152
32	0xbcfbb935	-0.030727962
33	0x3d16c1b5	0.036805827
34	0xbd01922e	-0.03163355
35	0xb8057497	-3.1818254e-05
36	0xbd8eff36	-0.069822714
37	0xbcb42fd0	-0.021995455
38	0x3cefec0a	0.029287357
39	0x3c817790	0.015804082
40	0xbc7659ce	-0.01503606
41	0x3d088ae9	0.0333356
42	0xbd8addfd	-0.06780622
43	0x3bb62cc0	0.005559534
44	0xbd31f46b	-0.043445986
45	0xbcc0d1e3	-0.023537582
46	0x3cb6adef	0.022299735
47	0x3cf87918	0.03033118
48	0x3c5f130f	0.013615384
49	0xba6329d3	-0.0008665595
50	0x3a43a54f	0.00074632926
51	0xbce04407	-0.027376188
52	0x3c0b2921	0.008493693
53	0xbb8475e7	-0.0040423754
54	0xbcae5843	-0.02128232
55	0x3d888a82	0.06667043
56	0xbcdbf860	-0.026851833
57	0xbc96dfd5	-0.018417278
58	0x3d74db32	0.059779353
59	0xbcff6afa	-0.03117894
60	0xba02dd1e	-0.00049920555
61	0x3d7e40e8	0.06207362
62	0x3ca59b66	0.020215701
63	0xb9f146f3	-0.00046019963
64	0x3c543604	0.012952331
65	0xbd27ca19	-0.04096422
66	0x3da3b4bd	0.079934575
67	0xbcc40bb9	-0.023931371
68	0xbc1ac3ba	-0.009446079
69	0x3af08640	0.0018350556
70	0xbc806b27	-0.015676094
71	0x3c890e60	0.016730487
72	0xbd0c9129	-0.034318123
73	0x3c0e40da	0.008682454
74	0x3c04ae22	0.008098157
75	0xbca715db	-0.020396164
76	0xbc09347e	-0.0083743315
77	0x3c9074d5	0.017633835
78	0x3d66aecb	0.05631904
79	0x3ca95b7e	0.02067351
80	0xbc044ceb	-0.008074979
81	0xbabeda5e	-0.0014560928
82	0x3ad2f7ea	0.0016095613
83	0xbd59bf41	-0.05316091
84	0xbcd21263	-0.025643533
85	0x3d1adaf4	0.037806466
86	0x3ce51b63	0.02796716
87	0x3ce653db	0.028116157
88	0x3cab241d	0.020891244
89	0x3c203c91	0.009780065
90	0x3d198dc4	0.037488714
91	0xbbf8a1dd	-0.007587655
92	0x3be50caf	0.0069900374
93	0xbc3337a6	-0.010938561
94	0x3bbe6735	0.005810643
95	0xb98b8964	-0.0002661451
96	0x3d72803f	0.059204336
97	0x3d9ae065	0.07562331
98	0x3c7696ee	0.015050633
99	0x3d1814a1	0.03712905
100	0x3af4733a	0.0018650063
101	0x3ccb6e9d	0.024833018
102	0xbc8252fe	-0.015908714
103	0x3d7701ea	0.06030456
104	0x3cbebad8	0.023282453
105	0x3c0c3c16	0.0085592475
106	0xbbbcf338	-0.0057662986
107	0x3cd51a06	0.026013386
108	0xbbab4ced	-0.005227676
109	0x3c10303d	0.008800563
110	0xbbdc2368	-0.006718088
111	0xbd0390c7	-0.032120492
112	0xbc8f50b6	-0.01749454
113	0xbb3ea616	-0.0029090694
114	0xbc35fea6	-0.011108076
115	0xba189c1b	-0.00058216014
116	0x3d2b1d57	0.041776028
117	0xbc382f2c	-0.011241715
118	0x3bdc88e7	0.006730187
119	0xbc98373e	-0.018581029
120	0xbbb2ed7c	-0.0054604392
121	0xbad1039f	-0.0015946514
122	0xbc34d380	-0.011036754
123	0xbb9e488d	-0.004830426
124	0xbd01378a	-0.031547107
125	0xbd91b468	-0.07114488
126	0x3cd584e5	0.026064346
127	0xbd1bf788	-0.03807786
128	0xbb8b0206	-0.0042421846
129	0xbb3168c2	-0.0027070497
130	0xbcd6f8d2	-0.026241694
131	0x3bb3add4	0.0054833684
132	0x3d22549a	0.039631464
133	0xbd3dcbbc	-0.046336874
134	0x3c27552f	0.01021318
135	0x3d0d9244	0.034563318
136	0x3c980e80	0.018561602
137	0xbcc64848	-0.024204388
138	0x3933aef9	0.00017135953
139	0x3d174f09	0.03694061
140	0x3cc246c7	0.02371539
141	0xbadf74e5	-0.0017048387
142	0x3c59b871	0.013288603
143	0x3c90d37c	0.017678969
144	0xbcb502ef	-0.022096125
145	0x3c199e01	0.00937605
146	0x3d22e919	0.03977308
147	0xbbec4626	-0.007210511
148	0xbcb48819	-0.022037553
149	0x39a9ca95	0.00032385127
150	0xbb79fa3c	-0.0038143536
151	0xbd074730	-0.033026874
152	0x3d5a4d28	0.05329624
153	0x3c5de05f	0.013542264
154	0xbc1264b7	-0.008935145
155	0xba5b3d1c	-0.0008363293
156	0xbc1cc495	-0.009568353
157	0x3d9abfcc	0.075561136
158	0xbbc1a6c8	-0.0059097745
159	0xbc9ad7ba	-0.018901695
160	0x3c0a37a5	0.008436118
161	0x3c8b3346	0.016992223
162	0xbc9f855a	-0.019472767
163	0x3c18ef03	0.009334329
164	0xbd2e3d71	-0.042539064
165	0xbca478dd	-0.020077163
166	0x3cfb6698	0.030688569
167	0xbb815b6e	-0.003947667
168	0xbc735a5d	-0.014853087
169	0x3baf4d99	0.0053498265
170	0x3c7e6512	0.015527027
171	0xbbc6b846	-0.0060644476
172	0x3a91a19a	0.0011110783
173	0xbbf7352b	-0.00754418
174	0x3c91c344	0.017793305
175	0x3c8409c6	0.016117942
176	0xbc9712da	-0.018441606
177	0xbc28a495	-0.010293146
178	0xbb6ba692	-0.0035957438
179	0xbb9ce3a4	-0.004787879
180	0x3c228a01	0.009920598
181	0xbb74753d	-0.0037301325
182	0xbca1a362	-0.019731227
183	0x3cc4ba29	0.02401455
184	0x3bf5fd28	0.007506985
185	0x3d0de8d6	0.034645878
186	0x3d403a3e	0.046930544
187	0xbc8a30b1	-0.016868921
188	0xbc38236d	-0.011238915
189	0x3ca2cc48	0.0198728
190	0x3bd04ab2	0.0063565606
191	0x3b254b89	0.0025222024
192	0x3d542f60	0.051802993
193	0x3bfbc350	0.007683195
194	0x3d679da8	0.056546837
195	0xbb8567f3	-0.0040712296
196	0x3d374c59	0.044750545
197	0xbb2ddf02	-0.0026530628
198	0x3c09527a	0.00838148
199	0xb9c1877d	-0.00036912775
200	0x3bb18421	0.0054173623
201	0x3dcf1de7	0.10113125
202	0x3a98ea72	0.001166655
203	0xbc523765	-0.01283059
204	0xbb5b690f	-0.0033479368
205	0x3c88b1a5	0.01668627
206	0x3d0036da	0.03130231
207	0xbac554e0	-0.0015055202
208	0xbb8bc9cc	-0.0042659994
209	0xbcc94355	-0.02456824
210	0x3c345b8e	0.011008156
211	0x3c5b675e	0.013391344
212	0xbcc920eb	-0.02455183
213	0x3ba16b23	0.004926102
214	0xbb17a2b1	-0.0023137743
215	0x3c9cf69f	0.019160567
216	0x3c5013db	0.012700046
217	0x3b28cf64	0.002575838
218	0x3bfeaa12	0.007771739
219	0xbc471b0b	-0.012152444
220	0x38624e25	5.3955377e-05
221	0x3c50b625	0.012738739
222	0x3ba88613	0.005142936
223	0xbcefb36b	-0.029260358
224	0x3da79aee	0.08183847
225	0xba9dbe51	-0.0012034868
226	0x3bf64e21	0.007516638
227	0x3d8aa430	0.067695975
228	0x3ba4d107	0.005029801
229	0x3c8294fb	0.01594018
230	0xbb825c41	-0.0039782827
231	0x3d5a6fa4	0.053329125
232	0x3bd3b6fe	0.0064610234
233	0xbbf85557	-0.0075785327
234	0xbb923b28	-0.0044626184
235	0xbc94f084	-0.018181093
236	0xbc846472	-0.016161177
237	0xbbc090a6	-0.0058766184
238	0x3caeedc5	0.021353612
239	0xbcf40572	-0.029787753
240	0xbc9a44fb	-0.01883172
241	0x3a753ea3	0.0009355342
242	0x3c951cb1	0.018202158
243	0x3bda928a	0.006670301
244	0xba8c3396	-0.0010696526
245	0x3c558d51	0.013034181
246	0x3c603202	0.013683798
247	0xba9f628b	-0.0012160105
248	0x3bb89683	0.005633177
249	0x3bca282e	0.0061693406
250	0x3ccafabe	0.024777766
251	0xbb81a34b	-0.0039562336
252	0xbd172b40	-0.03690648
253	0xbc016a68	-0.007898904
254	0x3cec1939	0.02882062
255	0xbc4e346e	-0.012585742
